
.. DO NOT EDIT.
.. THIS FILE WAS AUTOMATICALLY GENERATED BY SPHINX-GALLERY.
.. TO MAKE CHANGES, EDIT THE SOURCE PYTHON FILE:
.. "auto_examples\plot_opset.py"
.. LINE NUMBERS ARE GIVEN BELOW.

.. only:: html

    .. note::
        :class: sphx-glr-download-link-note

        Click :ref:`here <sphx_glr_download_auto_examples_plot_opset.py>`
        to download the full example code or to run this example in your browser via Binder

.. rst-class:: sphx-glr-example-title

.. _sphx_glr_auto_examples_plot_opset.py:


What is the opset number?
=========================

.. index:: opset, target opset, version

Every library is versioned. :epkg:`scikit-learn` may change
the implementation of a specific model. That happens
for example with the `SVC <https://scikit-learn.org/stable/
modules/generated/sklearn.svm.SVC.html>`_ model where
the parameter *break_ties* was added in 0.22. :epkg:`ONNX`
does also have a version called *opset number*.
Operator *ArgMin* was added in opset 1 and changed in opset
11, 12, 13. Sometimes, it is updated to extend the list
of types it supports, sometimes, it moves a parameter
into the input list. The runtime used to deploy the model
does not implement a new version, in that case, a model
must be converted by usually using the most recent opset
supported by the runtime, we call that opset the
*targeted opset*. An ONNX graph only contains
one unique opset, every node must be described following
the specifications defined by the latest opset below the
targeted opset.

This example considers an `IsolationForest
<https://scikit-learn.org/stable/modules/generated/
sklearn.ensemble.IsolationForest.html>`_ and digs into opsets.

.. contents::
    :local:

Data
++++

A simple example.

.. GENERATED FROM PYTHON SOURCE LINES 37-55

.. code-block:: default

    from onnx.defs import onnx_opset_version
    from skl2onnx import to_onnx
    import numpy
    import matplotlib.pyplot as plt
    from sklearn.ensemble import IsolationForest
    from sklearn.datasets import make_blobs

    X, y = make_blobs(n_samples=100, n_features=2)

    model = IsolationForest(n_estimators=3)
    model.fit(X)
    labels = model.predict(X)

    fig, ax = plt.subplots(1, 1)
    for k in (0, 1):
        ax.plot(X[labels == k, 0], X[labels == k, 1], 'o', label="cl%d" % k)
    ax.set_title("Sample")




.. image-sg:: /auto_examples/images/sphx_glr_plot_opset_001.png
   :alt: Sample
   :srcset: /auto_examples/images/sphx_glr_plot_opset_001.png
   :class: sphx-glr-single-img





.. GENERATED FROM PYTHON SOURCE LINES 56-58

ONNX
++++

.. GENERATED FROM PYTHON SOURCE LINES 58-63

.. code-block:: default



    onx = to_onnx(model, X[:1].astype(numpy.float32))
    print(onx)





.. rst-class:: sphx-glr-script-out

 Out:

 .. code-block:: none

    ir_version: 8
    producer_name: "skl2onnx"
    producer_version: "1.10.4"
    domain: "ai.onnx"
    model_version: 0
    doc_string: ""
    graph {
      node {
        input: "X"
        input: "node_sample0_Gathercst"
        output: "node_sample0_output0"
        name: "node_sample0_Gather"
        op_type: "Gather"
        attribute {
          name: "axis"
          i: 1
          type: INT
        }
        domain: ""
      }
      node {
        input: "node_sample0_output0"
        output: "node_sample0_Y0"
        name: "node_sample0_TreeEnsembleRegressor"
        op_type: "TreeEnsembleRegressor"
        attribute {
          name: "n_targets"
          i: 1
          type: INT
        }
        attribute {
          name: "nodes_falsenodeids"
          ints: 50
          ints: 49
          ints: 26
          ints: 15
          ints: 10
          ints: 7
          ints: 0
          ints: 9
          ints: 0
          ints: 0
          ints: 14
          ints: 13
          ints: 0
          ints: 0
          ints: 0
          ints: 21
          ints: 20
          ints: 19
          ints: 0
          ints: 0
          ints: 0
          ints: 23
          ints: 0
          ints: 25
          ints: 0
          ints: 0
          ints: 36
          ints: 33
          ints: 32
          ints: 31
          ints: 0
          ints: 0
          ints: 0
          ints: 35
          ints: 0
          ints: 0
          ints: 42
          ints: 41
          ints: 40
          ints: 0
          ints: 0
          ints: 0
          ints: 46
          ints: 45
          ints: 0
          ints: 0
          ints: 48
          ints: 0
          ints: 0
          ints: 0
          ints: 86
          ints: 69
          ints: 66
          ints: 59
          ints: 58
          ints: 57
          ints: 0
          ints: 0
          ints: 0
          ints: 63
          ints: 62
          ints: 0
          ints: 0
          ints: 65
          ints: 0
          ints: 0
          ints: 68
          ints: 0
          ints: 0
          ints: 85
          ints: 78
          ints: 75
          ints: 74
          ints: 0
          ints: 0
          ints: 77
          ints: 0
          ints: 0
          ints: 82
          ints: 81
          ints: 0
          ints: 0
          ints: 84
          ints: 0
          ints: 0
          ints: 0
          ints: 0
          type: INTS
        }
        attribute {
          name: "nodes_featureids"
          ints: 0
          ints: 1
          ints: 1
          ints: 0
          ints: 1
          ints: 1
          ints: 0
          ints: 0
          ints: 0
          ints: 0
          ints: 1
          ints: 0
          ints: 0
          ints: 0
          ints: 0
          ints: 0
          ints: 1
          ints: 1
          ints: 0
          ints: 0
          ints: 0
          ints: 1
          ints: 0
          ints: 0
          ints: 0
          ints: 0
          ints: 1
          ints: 0
          ints: 0
          ints: 1
          ints: 0
          ints: 0
          ints: 0
          ints: 1
          ints: 0
          ints: 0
          ints: 1
          ints: 0
          ints: 1
          ints: 0
          ints: 0
          ints: 0
          ints: 0
          ints: 0
          ints: 0
          ints: 0
          ints: 0
          ints: 0
          ints: 0
          ints: 0
          ints: 1
          ints: 0
          ints: 1
          ints: 1
          ints: 0
          ints: 0
          ints: 0
          ints: 0
          ints: 0
          ints: 0
          ints: 0
          ints: 0
          ints: 0
          ints: 0
          ints: 0
          ints: 0
          ints: 0
          ints: 0
          ints: 0
          ints: 0
          ints: 1
          ints: 1
          ints: 1
          ints: 0
          ints: 0
          ints: 1
          ints: 0
          ints: 0
          ints: 0
          ints: 1
          ints: 0
          ints: 0
          ints: 0
          ints: 0
          ints: 0
          ints: 0
          ints: 0
          type: INTS
        }
        attribute {
          name: "nodes_hitrates"
          floats: 1.0
          floats: 1.0
          floats: 1.0
          floats: 1.0
          floats: 1.0
          floats: 1.0
          floats: 1.0
          floats: 1.0
          floats: 1.0
          floats: 1.0
          floats: 1.0
          floats: 1.0
          floats: 1.0
          floats: 1.0
          floats: 1.0
          floats: 1.0
          floats: 1.0
          floats: 1.0
          floats: 1.0
          floats: 1.0
          floats: 1.0
          floats: 1.0
          floats: 1.0
          floats: 1.0
          floats: 1.0
          floats: 1.0
          floats: 1.0
          floats: 1.0
          floats: 1.0
          floats: 1.0
          floats: 1.0
          floats: 1.0
          floats: 1.0
          floats: 1.0
          floats: 1.0
          floats: 1.0
          floats: 1.0
          floats: 1.0
          floats: 1.0
          floats: 1.0
          floats: 1.0
          floats: 1.0
          floats: 1.0
          floats: 1.0
          floats: 1.0
          floats: 1.0
          floats: 1.0
          floats: 1.0
          floats: 1.0
          floats: 1.0
          floats: 1.0
          floats: 1.0
          floats: 1.0
          floats: 1.0
          floats: 1.0
          floats: 1.0
          floats: 1.0
          floats: 1.0
          floats: 1.0
          floats: 1.0
          floats: 1.0
          floats: 1.0
          floats: 1.0
          floats: 1.0
          floats: 1.0
          floats: 1.0
          floats: 1.0
          floats: 1.0
          floats: 1.0
          floats: 1.0
          floats: 1.0
          floats: 1.0
          floats: 1.0
          floats: 1.0
          floats: 1.0
          floats: 1.0
          floats: 1.0
          floats: 1.0
          floats: 1.0
          floats: 1.0
          floats: 1.0
          floats: 1.0
          floats: 1.0
          floats: 1.0
          floats: 1.0
          floats: 1.0
          floats: 1.0
          type: FLOATS
        }
        attribute {
          name: "nodes_missing_value_tracks_true"
          ints: 0
          ints: 0
          ints: 0
          ints: 0
          ints: 0
          ints: 0
          ints: 0
          ints: 0
          ints: 0
          ints: 0
          ints: 0
          ints: 0
          ints: 0
          ints: 0
          ints: 0
          ints: 0
          ints: 0
          ints: 0
          ints: 0
          ints: 0
          ints: 0
          ints: 0
          ints: 0
          ints: 0
          ints: 0
          ints: 0
          ints: 0
          ints: 0
          ints: 0
          ints: 0
          ints: 0
          ints: 0
          ints: 0
          ints: 0
          ints: 0
          ints: 0
          ints: 0
          ints: 0
          ints: 0
          ints: 0
          ints: 0
          ints: 0
          ints: 0
          ints: 0
          ints: 0
          ints: 0
          ints: 0
          ints: 0
          ints: 0
          ints: 0
          ints: 0
          ints: 0
          ints: 0
          ints: 0
          ints: 0
          ints: 0
          ints: 0
          ints: 0
          ints: 0
          ints: 0
          ints: 0
          ints: 0
          ints: 0
          ints: 0
          ints: 0
          ints: 0
          ints: 0
          ints: 0
          ints: 0
          ints: 0
          ints: 0
          ints: 0
          ints: 0
          ints: 0
          ints: 0
          ints: 0
          ints: 0
          ints: 0
          ints: 0
          ints: 0
          ints: 0
          ints: 0
          ints: 0
          ints: 0
          ints: 0
          ints: 0
          ints: 0
          type: INTS
        }
        attribute {
          name: "nodes_modes"
          strings: "BRANCH_LEQ"
          strings: "BRANCH_LEQ"
          strings: "BRANCH_LEQ"
          strings: "BRANCH_LEQ"
          strings: "BRANCH_LEQ"
          strings: "BRANCH_LEQ"
          strings: "LEAF"
          strings: "BRANCH_LEQ"
          strings: "LEAF"
          strings: "LEAF"
          strings: "BRANCH_LEQ"
          strings: "BRANCH_LEQ"
          strings: "LEAF"
          strings: "LEAF"
          strings: "LEAF"
          strings: "BRANCH_LEQ"
          strings: "BRANCH_LEQ"
          strings: "BRANCH_LEQ"
          strings: "LEAF"
          strings: "LEAF"
          strings: "LEAF"
          strings: "BRANCH_LEQ"
          strings: "LEAF"
          strings: "BRANCH_LEQ"
          strings: "LEAF"
          strings: "LEAF"
          strings: "BRANCH_LEQ"
          strings: "BRANCH_LEQ"
          strings: "BRANCH_LEQ"
          strings: "BRANCH_LEQ"
          strings: "LEAF"
          strings: "LEAF"
          strings: "LEAF"
          strings: "BRANCH_LEQ"
          strings: "LEAF"
          strings: "LEAF"
          strings: "BRANCH_LEQ"
          strings: "BRANCH_LEQ"
          strings: "BRANCH_LEQ"
          strings: "LEAF"
          strings: "LEAF"
          strings: "LEAF"
          strings: "BRANCH_LEQ"
          strings: "BRANCH_LEQ"
          strings: "LEAF"
          strings: "LEAF"
          strings: "BRANCH_LEQ"
          strings: "LEAF"
          strings: "LEAF"
          strings: "LEAF"
          strings: "BRANCH_LEQ"
          strings: "BRANCH_LEQ"
          strings: "BRANCH_LEQ"
          strings: "BRANCH_LEQ"
          strings: "BRANCH_LEQ"
          strings: "BRANCH_LEQ"
          strings: "LEAF"
          strings: "LEAF"
          strings: "LEAF"
          strings: "BRANCH_LEQ"
          strings: "BRANCH_LEQ"
          strings: "LEAF"
          strings: "LEAF"
          strings: "BRANCH_LEQ"
          strings: "LEAF"
          strings: "LEAF"
          strings: "BRANCH_LEQ"
          strings: "LEAF"
          strings: "LEAF"
          strings: "BRANCH_LEQ"
          strings: "BRANCH_LEQ"
          strings: "BRANCH_LEQ"
          strings: "BRANCH_LEQ"
          strings: "LEAF"
          strings: "LEAF"
          strings: "BRANCH_LEQ"
          strings: "LEAF"
          strings: "LEAF"
          strings: "BRANCH_LEQ"
          strings: "BRANCH_LEQ"
          strings: "LEAF"
          strings: "LEAF"
          strings: "BRANCH_LEQ"
          strings: "LEAF"
          strings: "LEAF"
          strings: "LEAF"
          strings: "LEAF"
          type: STRINGS
        }
        attribute {
          name: "nodes_nodeids"
          ints: 0
          ints: 1
          ints: 2
          ints: 3
          ints: 4
          ints: 5
          ints: 6
          ints: 7
          ints: 8
          ints: 9
          ints: 10
          ints: 11
          ints: 12
          ints: 13
          ints: 14
          ints: 15
          ints: 16
          ints: 17
          ints: 18
          ints: 19
          ints: 20
          ints: 21
          ints: 22
          ints: 23
          ints: 24
          ints: 25
          ints: 26
          ints: 27
          ints: 28
          ints: 29
          ints: 30
          ints: 31
          ints: 32
          ints: 33
          ints: 34
          ints: 35
          ints: 36
          ints: 37
          ints: 38
          ints: 39
          ints: 40
          ints: 41
          ints: 42
          ints: 43
          ints: 44
          ints: 45
          ints: 46
          ints: 47
          ints: 48
          ints: 49
          ints: 50
          ints: 51
          ints: 52
          ints: 53
          ints: 54
          ints: 55
          ints: 56
          ints: 57
          ints: 58
          ints: 59
          ints: 60
          ints: 61
          ints: 62
          ints: 63
          ints: 64
          ints: 65
          ints: 66
          ints: 67
          ints: 68
          ints: 69
          ints: 70
          ints: 71
          ints: 72
          ints: 73
          ints: 74
          ints: 75
          ints: 76
          ints: 77
          ints: 78
          ints: 79
          ints: 80
          ints: 81
          ints: 82
          ints: 83
          ints: 84
          ints: 85
          ints: 86
          type: INTS
        }
        attribute {
          name: "nodes_treeids"
          ints: 0
          ints: 0
          ints: 0
          ints: 0
          ints: 0
          ints: 0
          ints: 0
          ints: 0
          ints: 0
          ints: 0
          ints: 0
          ints: 0
          ints: 0
          ints: 0
          ints: 0
          ints: 0
          ints: 0
          ints: 0
          ints: 0
          ints: 0
          ints: 0
          ints: 0
          ints: 0
          ints: 0
          ints: 0
          ints: 0
          ints: 0
          ints: 0
          ints: 0
          ints: 0
          ints: 0
          ints: 0
          ints: 0
          ints: 0
          ints: 0
          ints: 0
          ints: 0
          ints: 0
          ints: 0
          ints: 0
          ints: 0
          ints: 0
          ints: 0
          ints: 0
          ints: 0
          ints: 0
          ints: 0
          ints: 0
          ints: 0
          ints: 0
          ints: 0
          ints: 0
          ints: 0
          ints: 0
          ints: 0
          ints: 0
          ints: 0
          ints: 0
          ints: 0
          ints: 0
          ints: 0
          ints: 0
          ints: 0
          ints: 0
          ints: 0
          ints: 0
          ints: 0
          ints: 0
          ints: 0
          ints: 0
          ints: 0
          ints: 0
          ints: 0
          ints: 0
          ints: 0
          ints: 0
          ints: 0
          ints: 0
          ints: 0
          ints: 0
          ints: 0
          ints: 0
          ints: 0
          ints: 0
          ints: 0
          ints: 0
          ints: 0
          type: INTS
        }
        attribute {
          name: "nodes_truenodeids"
          ints: 1
          ints: 2
          ints: 3
          ints: 4
          ints: 5
          ints: 6
          ints: 0
          ints: 8
          ints: 0
          ints: 0
          ints: 11
          ints: 12
          ints: 0
          ints: 0
          ints: 0
          ints: 16
          ints: 17
          ints: 18
          ints: 0
          ints: 0
          ints: 0
          ints: 22
          ints: 0
          ints: 24
          ints: 0
          ints: 0
          ints: 27
          ints: 28
          ints: 29
          ints: 30
          ints: 0
          ints: 0
          ints: 0
          ints: 34
          ints: 0
          ints: 0
          ints: 37
          ints: 38
          ints: 39
          ints: 0
          ints: 0
          ints: 0
          ints: 43
          ints: 44
          ints: 0
          ints: 0
          ints: 47
          ints: 0
          ints: 0
          ints: 0
          ints: 51
          ints: 52
          ints: 53
          ints: 54
          ints: 55
          ints: 56
          ints: 0
          ints: 0
          ints: 0
          ints: 60
          ints: 61
          ints: 0
          ints: 0
          ints: 64
          ints: 0
          ints: 0
          ints: 67
          ints: 0
          ints: 0
          ints: 70
          ints: 71
          ints: 72
          ints: 73
          ints: 0
          ints: 0
          ints: 76
          ints: 0
          ints: 0
          ints: 79
          ints: 80
          ints: 0
          ints: 0
          ints: 83
          ints: 0
          ints: 0
          ints: 0
          ints: 0
          type: INTS
        }
        attribute {
          name: "nodes_values"
          floats: 2.401646614074707
          floats: -1.493725061416626
          floats: -4.19070291519165
          floats: 0.3562072217464447
          floats: -5.026381492614746
          floats: -5.738096237182617
          floats: 0.0
          floats: -0.4537436366081238
          floats: 0.0
          floats: 0.0
          floats: -4.3482255935668945
          floats: -0.6684035658836365
          floats: 0.0
          floats: 0.0
          floats: 0.0
          floats: 1.586141586303711
          floats: -4.2758073806762695
          floats: -4.66154670715332
          floats: 0.0
          floats: 0.0
          floats: 0.0
          floats: -5.143162250518799
          floats: 0.0
          floats: 1.8347669839859009
          floats: 0.0
          floats: 0.0
          floats: -3.5633318424224854
          floats: 0.4427431523799896
          floats: -0.25335806608200073
          floats: -3.725797176361084
          floats: 0.0
          floats: 0.0
          floats: 0.0
          floats: -4.0100789070129395
          floats: 0.0
          floats: 0.0
          floats: -3.1563193798065186
          floats: 0.31584975123405457
          floats: -3.2712368965148926
          floats: 0.0
          floats: 0.0
          floats: 0.0
          floats: -0.33520209789276123
          floats: -0.529689371585846
          floats: 0.0
          floats: 0.0
          floats: -0.14833635091781616
          floats: 0.0
          floats: 0.0
          floats: 0.0
          floats: 7.970320701599121
          floats: 3.911497116088867
          floats: 7.59791898727417
          floats: -0.16442987322807312
          floats: 3.8318228721618652
          floats: 3.140625
          floats: 0.0
          floats: 0.0
          floats: 0.0
          floats: 3.6053779125213623
          floats: 3.043942928314209
          floats: 0.0
          floats: 0.0
          floats: 3.742833137512207
          floats: 0.0
          floats: 0.0
          floats: 3.1449170112609863
          floats: 0.0
          floats: 0.0
          floats: 7.278097152709961
          floats: 1.6520954370498657
          floats: -0.09629271179437637
          floats: -1.1298792362213135
          floats: 0.0
          floats: 0.0
          floats: 0.21970070898532867
          floats: 0.0
          floats: 0.0
          floats: 6.013342380523682
          floats: 4.891730308532715
          floats: 0.0
          floats: 0.0
          floats: 6.2998528480529785
          floats: 0.0
          floats: 0.0
          floats: 0.0
          floats: 0.0
          type: FLOATS
        }
        attribute {
          name: "post_transform"
          s: "NONE"
          type: STRING
        }
        attribute {
          name: "target_ids"
          ints: 0
          ints: 0
          ints: 0
          ints: 0
          ints: 0
          ints: 0
          ints: 0
          ints: 0
          ints: 0
          ints: 0
          ints: 0
          ints: 0
          ints: 0
          ints: 0
          ints: 0
          ints: 0
          ints: 0
          ints: 0
          ints: 0
          ints: 0
          ints: 0
          ints: 0
          ints: 0
          ints: 0
          ints: 0
          ints: 0
          ints: 0
          ints: 0
          ints: 0
          ints: 0
          ints: 0
          ints: 0
          ints: 0
          ints: 0
          ints: 0
          ints: 0
          ints: 0
          ints: 0
          ints: 0
          ints: 0
          ints: 0
          ints: 0
          ints: 0
          ints: 0
          type: INTS
        }
        attribute {
          name: "target_nodeids"
          ints: 6
          ints: 8
          ints: 9
          ints: 12
          ints: 13
          ints: 14
          ints: 18
          ints: 19
          ints: 20
          ints: 22
          ints: 24
          ints: 25
          ints: 30
          ints: 31
          ints: 32
          ints: 34
          ints: 35
          ints: 39
          ints: 40
          ints: 41
          ints: 44
          ints: 45
          ints: 47
          ints: 48
          ints: 49
          ints: 56
          ints: 57
          ints: 58
          ints: 61
          ints: 62
          ints: 64
          ints: 65
          ints: 67
          ints: 68
          ints: 73
          ints: 74
          ints: 76
          ints: 77
          ints: 80
          ints: 81
          ints: 83
          ints: 84
          ints: 85
          ints: 86
          type: INTS
        }
        attribute {
          name: "target_treeids"
          ints: 0
          ints: 0
          ints: 0
          ints: 0
          ints: 0
          ints: 0
          ints: 0
          ints: 0
          ints: 0
          ints: 0
          ints: 0
          ints: 0
          ints: 0
          ints: 0
          ints: 0
          ints: 0
          ints: 0
          ints: 0
          ints: 0
          ints: 0
          ints: 0
          ints: 0
          ints: 0
          ints: 0
          ints: 0
          ints: 0
          ints: 0
          ints: 0
          ints: 0
          ints: 0
          ints: 0
          ints: 0
          ints: 0
          ints: 0
          ints: 0
          ints: 0
          ints: 0
          ints: 0
          ints: 0
          ints: 0
          ints: 0
          ints: 0
          ints: 0
          ints: 0
          type: INTS
        }
        attribute {
          name: "target_weights"
          floats: 6.0
          floats: 8.0
          floats: 9.0
          floats: 12.0
          floats: 13.0
          floats: 14.0
          floats: 18.0
          floats: 19.0
          floats: 20.0
          floats: 22.0
          floats: 24.0
          floats: 25.0
          floats: 30.0
          floats: 31.0
          floats: 32.0
          floats: 34.0
          floats: 35.0
          floats: 39.0
          floats: 40.0
          floats: 41.0
          floats: 44.0
          floats: 45.0
          floats: 47.0
          floats: 48.0
          floats: 49.0
          floats: 56.0
          floats: 57.0
          floats: 58.0
          floats: 61.0
          floats: 62.0
          floats: 64.0
          floats: 65.0
          floats: 67.0
          floats: 68.0
          floats: 73.0
          floats: 74.0
          floats: 76.0
          floats: 77.0
          floats: 80.0
          floats: 81.0
          floats: 83.0
          floats: 84.0
          floats: 85.0
          floats: 86.0
          type: FLOATS
        }
        domain: "ai.onnx.ml"
      }
      node {
        input: "X"
        input: "node_sample0_Gathercst"
        output: "node_sample1_output0"
        name: "node_sample1_Gather"
        op_type: "Gather"
        attribute {
          name: "axis"
          i: 1
          type: INT
        }
        domain: ""
      }
      node {
        input: "X"
        input: "node_sample0_Gathercst"
        output: "node_sample2_output0"
        name: "node_sample2_Gather"
        op_type: "Gather"
        attribute {
          name: "axis"
          i: 1
          type: INT
        }
        domain: ""
      }
      node {
        input: "node_sample0_Y0"
        output: "path_length0_output0"
        name: "path_length0_Cast"
        op_type: "Cast"
        attribute {
          name: "to"
          i: 7
          type: INT
        }
        domain: ""
      }
      node {
        input: "node_sample0_Y0"
        output: "node_sample0_output02"
        name: "node_sample0_Cast"
        op_type: "Cast"
        attribute {
          name: "to"
          i: 7
          type: INT
        }
        domain: ""
      }
      node {
        input: "node_sample1_output0"
        output: "node_sample1_Y0"
        name: "node_sample1_TreeEnsembleRegressor"
        op_type: "TreeEnsembleRegressor"
        attribute {
          name: "n_targets"
          i: 1
          type: INT
        }
        attribute {
          name: "nodes_falsenodeids"
          ints: 22
          ints: 3
          ints: 0
          ints: 21
          ints: 16
          ints: 9
          ints: 8
          ints: 0
          ints: 0
          ints: 13
          ints: 12
          ints: 0
          ints: 0
          ints: 15
          ints: 0
          ints: 0
          ints: 18
          ints: 0
          ints: 20
          ints: 0
          ints: 0
          ints: 0
          ints: 46
          ints: 29
          ints: 28
          ints: 27
          ints: 0
          ints: 0
          ints: 0
          ints: 39
          ints: 36
          ints: 33
          ints: 0
          ints: 35
          ints: 0
          ints: 0
          ints: 38
          ints: 0
          ints: 0
          ints: 41
          ints: 0
          ints: 45
          ints: 44
          ints: 0
          ints: 0
          ints: 0
          ints: 62
          ints: 59
          ints: 54
          ints: 51
          ints: 0
          ints: 53
          ints: 0
          ints: 0
          ints: 56
          ints: 0
          ints: 58
          ints: 0
          ints: 0
          ints: 61
          ints: 0
          ints: 0
          ints: 78
          ints: 71
          ints: 68
          ints: 67
          ints: 0
          ints: 0
          ints: 70
          ints: 0
          ints: 0
          ints: 75
          ints: 74
          ints: 0
          ints: 0
          ints: 77
          ints: 0
          ints: 0
          ints: 80
          ints: 0
          ints: 0
          type: INTS
        }
        attribute {
          name: "nodes_featureids"
          ints: 0
          ints: 0
          ints: 0
          ints: 1
          ints: 0
          ints: 0
          ints: 0
          ints: 0
          ints: 0
          ints: 1
          ints: 1
          ints: 0
          ints: 0
          ints: 1
          ints: 0
          ints: 0
          ints: 1
          ints: 0
          ints: 0
          ints: 0
          ints: 0
          ints: 0
          ints: 1
          ints: 0
          ints: 0
          ints: 1
          ints: 0
          ints: 0
          ints: 0
          ints: 1
          ints: 1
          ints: 0
          ints: 0
          ints: 0
          ints: 0
          ints: 0
          ints: 0
          ints: 0
          ints: 0
          ints: 0
          ints: 0
          ints: 1
          ints: 1
          ints: 0
          ints: 0
          ints: 0
          ints: 0
          ints: 1
          ints: 1
          ints: 1
          ints: 0
          ints: 1
          ints: 0
          ints: 0
          ints: 1
          ints: 0
          ints: 0
          ints: 0
          ints: 0
          ints: 0
          ints: 0
          ints: 0
          ints: 1
          ints: 1
          ints: 0
          ints: 0
          ints: 0
          ints: 0
          ints: 1
          ints: 0
          ints: 0
          ints: 0
          ints: 1
          ints: 0
          ints: 0
          ints: 1
          ints: 0
          ints: 0
          ints: 0
          ints: 0
          ints: 0
          type: INTS
        }
        attribute {
          name: "nodes_hitrates"
          floats: 1.0
          floats: 1.0
          floats: 1.0
          floats: 1.0
          floats: 1.0
          floats: 1.0
          floats: 1.0
          floats: 1.0
          floats: 1.0
          floats: 1.0
          floats: 1.0
          floats: 1.0
          floats: 1.0
          floats: 1.0
          floats: 1.0
          floats: 1.0
          floats: 1.0
          floats: 1.0
          floats: 1.0
          floats: 1.0
          floats: 1.0
          floats: 1.0
          floats: 1.0
          floats: 1.0
          floats: 1.0
          floats: 1.0
          floats: 1.0
          floats: 1.0
          floats: 1.0
          floats: 1.0
          floats: 1.0
          floats: 1.0
          floats: 1.0
          floats: 1.0
          floats: 1.0
          floats: 1.0
          floats: 1.0
          floats: 1.0
          floats: 1.0
          floats: 1.0
          floats: 1.0
          floats: 1.0
          floats: 1.0
          floats: 1.0
          floats: 1.0
          floats: 1.0
          floats: 1.0
          floats: 1.0
          floats: 1.0
          floats: 1.0
          floats: 1.0
          floats: 1.0
          floats: 1.0
          floats: 1.0
          floats: 1.0
          floats: 1.0
          floats: 1.0
          floats: 1.0
          floats: 1.0
          floats: 1.0
          floats: 1.0
          floats: 1.0
          floats: 1.0
          floats: 1.0
          floats: 1.0
          floats: 1.0
          floats: 1.0
          floats: 1.0
          floats: 1.0
          floats: 1.0
          floats: 1.0
          floats: 1.0
          floats: 1.0
          floats: 1.0
          floats: 1.0
          floats: 1.0
          floats: 1.0
          floats: 1.0
          floats: 1.0
          floats: 1.0
          floats: 1.0
          type: FLOATS
        }
        attribute {
          name: "nodes_missing_value_tracks_true"
          ints: 0
          ints: 0
          ints: 0
          ints: 0
          ints: 0
          ints: 0
          ints: 0
          ints: 0
          ints: 0
          ints: 0
          ints: 0
          ints: 0
          ints: 0
          ints: 0
          ints: 0
          ints: 0
          ints: 0
          ints: 0
          ints: 0
          ints: 0
          ints: 0
          ints: 0
          ints: 0
          ints: 0
          ints: 0
          ints: 0
          ints: 0
          ints: 0
          ints: 0
          ints: 0
          ints: 0
          ints: 0
          ints: 0
          ints: 0
          ints: 0
          ints: 0
          ints: 0
          ints: 0
          ints: 0
          ints: 0
          ints: 0
          ints: 0
          ints: 0
          ints: 0
          ints: 0
          ints: 0
          ints: 0
          ints: 0
          ints: 0
          ints: 0
          ints: 0
          ints: 0
          ints: 0
          ints: 0
          ints: 0
          ints: 0
          ints: 0
          ints: 0
          ints: 0
          ints: 0
          ints: 0
          ints: 0
          ints: 0
          ints: 0
          ints: 0
          ints: 0
          ints: 0
          ints: 0
          ints: 0
          ints: 0
          ints: 0
          ints: 0
          ints: 0
          ints: 0
          ints: 0
          ints: 0
          ints: 0
          ints: 0
          ints: 0
          ints: 0
          ints: 0
          type: INTS
        }
        attribute {
          name: "nodes_modes"
          strings: "BRANCH_LEQ"
          strings: "BRANCH_LEQ"
          strings: "LEAF"
          strings: "BRANCH_LEQ"
          strings: "BRANCH_LEQ"
          strings: "BRANCH_LEQ"
          strings: "BRANCH_LEQ"
          strings: "LEAF"
          strings: "LEAF"
          strings: "BRANCH_LEQ"
          strings: "BRANCH_LEQ"
          strings: "LEAF"
          strings: "LEAF"
          strings: "BRANCH_LEQ"
          strings: "LEAF"
          strings: "LEAF"
          strings: "BRANCH_LEQ"
          strings: "LEAF"
          strings: "BRANCH_LEQ"
          strings: "LEAF"
          strings: "LEAF"
          strings: "LEAF"
          strings: "BRANCH_LEQ"
          strings: "BRANCH_LEQ"
          strings: "BRANCH_LEQ"
          strings: "BRANCH_LEQ"
          strings: "LEAF"
          strings: "LEAF"
          strings: "LEAF"
          strings: "BRANCH_LEQ"
          strings: "BRANCH_LEQ"
          strings: "BRANCH_LEQ"
          strings: "LEAF"
          strings: "BRANCH_LEQ"
          strings: "LEAF"
          strings: "LEAF"
          strings: "BRANCH_LEQ"
          strings: "LEAF"
          strings: "LEAF"
          strings: "BRANCH_LEQ"
          strings: "LEAF"
          strings: "BRANCH_LEQ"
          strings: "BRANCH_LEQ"
          strings: "LEAF"
          strings: "LEAF"
          strings: "LEAF"
          strings: "BRANCH_LEQ"
          strings: "BRANCH_LEQ"
          strings: "BRANCH_LEQ"
          strings: "BRANCH_LEQ"
          strings: "LEAF"
          strings: "BRANCH_LEQ"
          strings: "LEAF"
          strings: "LEAF"
          strings: "BRANCH_LEQ"
          strings: "LEAF"
          strings: "BRANCH_LEQ"
          strings: "LEAF"
          strings: "LEAF"
          strings: "BRANCH_LEQ"
          strings: "LEAF"
          strings: "LEAF"
          strings: "BRANCH_LEQ"
          strings: "BRANCH_LEQ"
          strings: "BRANCH_LEQ"
          strings: "BRANCH_LEQ"
          strings: "LEAF"
          strings: "LEAF"
          strings: "BRANCH_LEQ"
          strings: "LEAF"
          strings: "LEAF"
          strings: "BRANCH_LEQ"
          strings: "BRANCH_LEQ"
          strings: "LEAF"
          strings: "LEAF"
          strings: "BRANCH_LEQ"
          strings: "LEAF"
          strings: "LEAF"
          strings: "BRANCH_LEQ"
          strings: "LEAF"
          strings: "LEAF"
          type: STRINGS
        }
        attribute {
          name: "nodes_nodeids"
          ints: 0
          ints: 1
          ints: 2
          ints: 3
          ints: 4
          ints: 5
          ints: 6
          ints: 7
          ints: 8
          ints: 9
          ints: 10
          ints: 11
          ints: 12
          ints: 13
          ints: 14
          ints: 15
          ints: 16
          ints: 17
          ints: 18
          ints: 19
          ints: 20
          ints: 21
          ints: 22
          ints: 23
          ints: 24
          ints: 25
          ints: 26
          ints: 27
          ints: 28
          ints: 29
          ints: 30
          ints: 31
          ints: 32
          ints: 33
          ints: 34
          ints: 35
          ints: 36
          ints: 37
          ints: 38
          ints: 39
          ints: 40
          ints: 41
          ints: 42
          ints: 43
          ints: 44
          ints: 45
          ints: 46
          ints: 47
          ints: 48
          ints: 49
          ints: 50
          ints: 51
          ints: 52
          ints: 53
          ints: 54
          ints: 55
          ints: 56
          ints: 57
          ints: 58
          ints: 59
          ints: 60
          ints: 61
          ints: 62
          ints: 63
          ints: 64
          ints: 65
          ints: 66
          ints: 67
          ints: 68
          ints: 69
          ints: 70
          ints: 71
          ints: 72
          ints: 73
          ints: 74
          ints: 75
          ints: 76
          ints: 77
          ints: 78
          ints: 79
          ints: 80
          type: INTS
        }
        attribute {
          name: "nodes_treeids"
          ints: 0
          ints: 0
          ints: 0
          ints: 0
          ints: 0
          ints: 0
          ints: 0
          ints: 0
          ints: 0
          ints: 0
          ints: 0
          ints: 0
          ints: 0
          ints: 0
          ints: 0
          ints: 0
          ints: 0
          ints: 0
          ints: 0
          ints: 0
          ints: 0
          ints: 0
          ints: 0
          ints: 0
          ints: 0
          ints: 0
          ints: 0
          ints: 0
          ints: 0
          ints: 0
          ints: 0
          ints: 0
          ints: 0
          ints: 0
          ints: 0
          ints: 0
          ints: 0
          ints: 0
          ints: 0
          ints: 0
          ints: 0
          ints: 0
          ints: 0
          ints: 0
          ints: 0
          ints: 0
          ints: 0
          ints: 0
          ints: 0
          ints: 0
          ints: 0
          ints: 0
          ints: 0
          ints: 0
          ints: 0
          ints: 0
          ints: 0
          ints: 0
          ints: 0
          ints: 0
          ints: 0
          ints: 0
          ints: 0
          ints: 0
          ints: 0
          ints: 0
          ints: 0
          ints: 0
          ints: 0
          ints: 0
          ints: 0
          ints: 0
          ints: 0
          ints: 0
          ints: 0
          ints: 0
          ints: 0
          ints: 0
          ints: 0
          ints: 0
          ints: 0
          type: INTS
        }
        attribute {
          name: "nodes_truenodeids"
          ints: 1
          ints: 2
          ints: 0
          ints: 4
          ints: 5
          ints: 6
          ints: 7
          ints: 0
          ints: 0
          ints: 10
          ints: 11
          ints: 0
          ints: 0
          ints: 14
          ints: 0
          ints: 0
          ints: 17
          ints: 0
          ints: 19
          ints: 0
          ints: 0
          ints: 0
          ints: 23
          ints: 24
          ints: 25
          ints: 26
          ints: 0
          ints: 0
          ints: 0
          ints: 30
          ints: 31
          ints: 32
          ints: 0
          ints: 34
          ints: 0
          ints: 0
          ints: 37
          ints: 0
          ints: 0
          ints: 40
          ints: 0
          ints: 42
          ints: 43
          ints: 0
          ints: 0
          ints: 0
          ints: 47
          ints: 48
          ints: 49
          ints: 50
          ints: 0
          ints: 52
          ints: 0
          ints: 0
          ints: 55
          ints: 0
          ints: 57
          ints: 0
          ints: 0
          ints: 60
          ints: 0
          ints: 0
          ints: 63
          ints: 64
          ints: 65
          ints: 66
          ints: 0
          ints: 0
          ints: 69
          ints: 0
          ints: 0
          ints: 72
          ints: 73
          ints: 0
          ints: 0
          ints: 76
          ints: 0
          ints: 0
          ints: 79
          ints: 0
          ints: 0
          type: INTS
        }
        attribute {
          name: "nodes_values"
          floats: -0.23053017258644104
          floats: -1.6028118133544922
          floats: 0.0
          floats: -2.9051759243011475
          floats: -0.4846806526184082
          floats: -1.0105611085891724
          floats: -1.2310692071914673
          floats: 0.0
          floats: 0.0
          floats: -4.07745885848999
          floats: -5.485716819763184
          floats: 0.0
          floats: 0.0
          floats: -3.2933568954467773
          floats: 0.0
          floats: 0.0
          floats: -3.849612236022949
          floats: 0.0
          floats: -0.42927348613739014
          floats: 0.0
          floats: 0.0
          floats: 0.0
          floats: -3.1832447052001953
          floats: -0.0900484174489975
          floats: -0.09948164969682693
          floats: -5.091693878173828
          floats: 0.0
          floats: 0.0
          floats: 0.0
          floats: -4.294740200042725
          floats: -4.665445327758789
          floats: 1.1885281801223755
          floats: 0.0
          floats: 2.040403366088867
          floats: 0.0
          floats: 0.0
          floats: 0.8777627348899841
          floats: 0.0
          floats: 0.0
          floats: 0.4770658612251282
          floats: 0.0
          floats: -3.5575244426727295
          floats: -3.816970109939575
          floats: 0.0
          floats: 0.0
          floats: 0.0
          floats: 3.7908806800842285
          floats: 7.382343292236328
          floats: 1.7334814071655273
          floats: -2.813767433166504
          floats: 0.0
          floats: 0.17858026921749115
          floats: 0.0
          floats: 0.0
          floats: 4.398648262023926
          floats: 0.0
          floats: 3.436195135116577
          floats: 0.0
          floats: 0.0
          floats: 2.863478660583496
          floats: 0.0
          floats: 0.0
          floats: 6.565022945404053
          floats: -1.3336976766586304
          floats: 5.55978536605835
          floats: 4.952542781829834
          floats: 0.0
          floats: 0.0
          floats: -2.735018730163574
          floats: 0.0
          floats: 0.0
          floats: 4.26056432723999
          floats: 1.7470229864120483
          floats: 0.0
          floats: 0.0
          floats: -0.09430770576000214
          floats: 0.0
          floats: 0.0
          floats: 4.457232475280762
          floats: 0.0
          floats: 0.0
          type: FLOATS
        }
        attribute {
          name: "post_transform"
          s: "NONE"
          type: STRING
        }
        attribute {
          name: "target_ids"
          ints: 0
          ints: 0
          ints: 0
          ints: 0
          ints: 0
          ints: 0
          ints: 0
          ints: 0
          ints: 0
          ints: 0
          ints: 0
          ints: 0
          ints: 0
          ints: 0
          ints: 0
          ints: 0
          ints: 0
          ints: 0
          ints: 0
          ints: 0
          ints: 0
          ints: 0
          ints: 0
          ints: 0
          ints: 0
          ints: 0
          ints: 0
          ints: 0
          ints: 0
          ints: 0
          ints: 0
          ints: 0
          ints: 0
          ints: 0
          ints: 0
          ints: 0
          ints: 0
          ints: 0
          ints: 0
          ints: 0
          ints: 0
          type: INTS
        }
        attribute {
          name: "target_nodeids"
          ints: 2
          ints: 7
          ints: 8
          ints: 11
          ints: 12
          ints: 14
          ints: 15
          ints: 17
          ints: 19
          ints: 20
          ints: 21
          ints: 26
          ints: 27
          ints: 28
          ints: 32
          ints: 34
          ints: 35
          ints: 37
          ints: 38
          ints: 40
          ints: 43
          ints: 44
          ints: 45
          ints: 50
          ints: 52
          ints: 53
          ints: 55
          ints: 57
          ints: 58
          ints: 60
          ints: 61
          ints: 66
          ints: 67
          ints: 69
          ints: 70
          ints: 73
          ints: 74
          ints: 76
          ints: 77
          ints: 79
          ints: 80
          type: INTS
        }
        attribute {
          name: "target_treeids"
          ints: 0
          ints: 0
          ints: 0
          ints: 0
          ints: 0
          ints: 0
          ints: 0
          ints: 0
          ints: 0
          ints: 0
          ints: 0
          ints: 0
          ints: 0
          ints: 0
          ints: 0
          ints: 0
          ints: 0
          ints: 0
          ints: 0
          ints: 0
          ints: 0
          ints: 0
          ints: 0
          ints: 0
          ints: 0
          ints: 0
          ints: 0
          ints: 0
          ints: 0
          ints: 0
          ints: 0
          ints: 0
          ints: 0
          ints: 0
          ints: 0
          ints: 0
          ints: 0
          ints: 0
          ints: 0
          ints: 0
          ints: 0
          type: INTS
        }
        attribute {
          name: "target_weights"
          floats: 2.0
          floats: 7.0
          floats: 8.0
          floats: 11.0
          floats: 12.0
          floats: 14.0
          floats: 15.0
          floats: 17.0
          floats: 19.0
          floats: 20.0
          floats: 21.0
          floats: 26.0
          floats: 27.0
          floats: 28.0
          floats: 32.0
          floats: 34.0
          floats: 35.0
          floats: 37.0
          floats: 38.0
          floats: 40.0
          floats: 43.0
          floats: 44.0
          floats: 45.0
          floats: 50.0
          floats: 52.0
          floats: 53.0
          floats: 55.0
          floats: 57.0
          floats: 58.0
          floats: 60.0
          floats: 61.0
          floats: 66.0
          floats: 67.0
          floats: 69.0
          floats: 70.0
          floats: 73.0
          floats: 74.0
          floats: 76.0
          floats: 77.0
          floats: 79.0
          floats: 80.0
          type: FLOATS
        }
        domain: "ai.onnx.ml"
      }
      node {
        input: "node_sample2_output0"
        output: "node_sample2_Y0"
        name: "node_sample2_TreeEnsembleRegressor"
        op_type: "TreeEnsembleRegressor"
        attribute {
          name: "n_targets"
          i: 1
          type: INT
        }
        attribute {
          name: "nodes_falsenodeids"
          ints: 54
          ints: 51
          ints: 32
          ints: 17
          ints: 10
          ints: 9
          ints: 8
          ints: 0
          ints: 0
          ints: 0
          ints: 14
          ints: 13
          ints: 0
          ints: 0
          ints: 16
          ints: 0
          ints: 0
          ints: 25
          ints: 22
          ints: 21
          ints: 0
          ints: 0
          ints: 24
          ints: 0
          ints: 0
          ints: 29
          ints: 28
          ints: 0
          ints: 0
          ints: 31
          ints: 0
          ints: 0
          ints: 42
          ints: 41
          ints: 38
          ints: 37
          ints: 0
          ints: 0
          ints: 40
          ints: 0
          ints: 0
          ints: 0
          ints: 50
          ints: 47
          ints: 46
          ints: 0
          ints: 0
          ints: 49
          ints: 0
          ints: 0
          ints: 0
          ints: 53
          ints: 0
          ints: 0
          ints: 58
          ints: 57
          ints: 0
          ints: 0
          ints: 64
          ints: 63
          ints: 62
          ints: 0
          ints: 0
          ints: 0
          ints: 0
          type: INTS
        }
        attribute {
          name: "nodes_featureids"
          ints: 0
          ints: 0
          ints: 1
          ints: 1
          ints: 1
          ints: 0
          ints: 1
          ints: 0
          ints: 0
          ints: 0
          ints: 1
          ints: 1
          ints: 0
          ints: 0
          ints: 0
          ints: 0
          ints: 0
          ints: 0
          ints: 1
          ints: 0
          ints: 0
          ints: 0
          ints: 0
          ints: 0
          ints: 0
          ints: 1
          ints: 1
          ints: 0
          ints: 0
          ints: 1
          ints: 0
          ints: 0
          ints: 1
          ints: 1
          ints: 0
          ints: 0
          ints: 0
          ints: 0
          ints: 0
          ints: 0
          ints: 0
          ints: 0
          ints: 0
          ints: 0
          ints: 0
          ints: 0
          ints: 0
          ints: 1
          ints: 0
          ints: 0
          ints: 0
          ints: 0
          ints: 0
          ints: 0
          ints: 0
          ints: 1
          ints: 0
          ints: 0
          ints: 0
          ints: 0
          ints: 1
          ints: 0
          ints: 0
          ints: 0
          ints: 0
          type: INTS
        }
        attribute {
          name: "nodes_hitrates"
          floats: 1.0
          floats: 1.0
          floats: 1.0
          floats: 1.0
          floats: 1.0
          floats: 1.0
          floats: 1.0
          floats: 1.0
          floats: 1.0
          floats: 1.0
          floats: 1.0
          floats: 1.0
          floats: 1.0
          floats: 1.0
          floats: 1.0
          floats: 1.0
          floats: 1.0
          floats: 1.0
          floats: 1.0
          floats: 1.0
          floats: 1.0
          floats: 1.0
          floats: 1.0
          floats: 1.0
          floats: 1.0
          floats: 1.0
          floats: 1.0
          floats: 1.0
          floats: 1.0
          floats: 1.0
          floats: 1.0
          floats: 1.0
          floats: 1.0
          floats: 1.0
          floats: 1.0
          floats: 1.0
          floats: 1.0
          floats: 1.0
          floats: 1.0
          floats: 1.0
          floats: 1.0
          floats: 1.0
          floats: 1.0
          floats: 1.0
          floats: 1.0
          floats: 1.0
          floats: 1.0
          floats: 1.0
          floats: 1.0
          floats: 1.0
          floats: 1.0
          floats: 1.0
          floats: 1.0
          floats: 1.0
          floats: 1.0
          floats: 1.0
          floats: 1.0
          floats: 1.0
          floats: 1.0
          floats: 1.0
          floats: 1.0
          floats: 1.0
          floats: 1.0
          floats: 1.0
          floats: 1.0
          type: FLOATS
        }
        attribute {
          name: "nodes_missing_value_tracks_true"
          ints: 0
          ints: 0
          ints: 0
          ints: 0
          ints: 0
          ints: 0
          ints: 0
          ints: 0
          ints: 0
          ints: 0
          ints: 0
          ints: 0
          ints: 0
          ints: 0
          ints: 0
          ints: 0
          ints: 0
          ints: 0
          ints: 0
          ints: 0
          ints: 0
          ints: 0
          ints: 0
          ints: 0
          ints: 0
          ints: 0
          ints: 0
          ints: 0
          ints: 0
          ints: 0
          ints: 0
          ints: 0
          ints: 0
          ints: 0
          ints: 0
          ints: 0
          ints: 0
          ints: 0
          ints: 0
          ints: 0
          ints: 0
          ints: 0
          ints: 0
          ints: 0
          ints: 0
          ints: 0
          ints: 0
          ints: 0
          ints: 0
          ints: 0
          ints: 0
          ints: 0
          ints: 0
          ints: 0
          ints: 0
          ints: 0
          ints: 0
          ints: 0
          ints: 0
          ints: 0
          ints: 0
          ints: 0
          ints: 0
          ints: 0
          ints: 0
          type: INTS
        }
        attribute {
          name: "nodes_modes"
          strings: "BRANCH_LEQ"
          strings: "BRANCH_LEQ"
          strings: "BRANCH_LEQ"
          strings: "BRANCH_LEQ"
          strings: "BRANCH_LEQ"
          strings: "BRANCH_LEQ"
          strings: "BRANCH_LEQ"
          strings: "LEAF"
          strings: "LEAF"
          strings: "LEAF"
          strings: "BRANCH_LEQ"
          strings: "BRANCH_LEQ"
          strings: "LEAF"
          strings: "LEAF"
          strings: "BRANCH_LEQ"
          strings: "LEAF"
          strings: "LEAF"
          strings: "BRANCH_LEQ"
          strings: "BRANCH_LEQ"
          strings: "BRANCH_LEQ"
          strings: "LEAF"
          strings: "LEAF"
          strings: "BRANCH_LEQ"
          strings: "LEAF"
          strings: "LEAF"
          strings: "BRANCH_LEQ"
          strings: "BRANCH_LEQ"
          strings: "LEAF"
          strings: "LEAF"
          strings: "BRANCH_LEQ"
          strings: "LEAF"
          strings: "LEAF"
          strings: "BRANCH_LEQ"
          strings: "BRANCH_LEQ"
          strings: "BRANCH_LEQ"
          strings: "BRANCH_LEQ"
          strings: "LEAF"
          strings: "LEAF"
          strings: "BRANCH_LEQ"
          strings: "LEAF"
          strings: "LEAF"
          strings: "LEAF"
          strings: "BRANCH_LEQ"
          strings: "BRANCH_LEQ"
          strings: "BRANCH_LEQ"
          strings: "LEAF"
          strings: "LEAF"
          strings: "BRANCH_LEQ"
          strings: "LEAF"
          strings: "LEAF"
          strings: "LEAF"
          strings: "BRANCH_LEQ"
          strings: "LEAF"
          strings: "LEAF"
          strings: "BRANCH_LEQ"
          strings: "BRANCH_LEQ"
          strings: "LEAF"
          strings: "LEAF"
          strings: "BRANCH_LEQ"
          strings: "BRANCH_LEQ"
          strings: "BRANCH_LEQ"
          strings: "LEAF"
          strings: "LEAF"
          strings: "LEAF"
          strings: "LEAF"
          type: STRINGS
        }
        attribute {
          name: "nodes_nodeids"
          ints: 0
          ints: 1
          ints: 2
          ints: 3
          ints: 4
          ints: 5
          ints: 6
          ints: 7
          ints: 8
          ints: 9
          ints: 10
          ints: 11
          ints: 12
          ints: 13
          ints: 14
          ints: 15
          ints: 16
          ints: 17
          ints: 18
          ints: 19
          ints: 20
          ints: 21
          ints: 22
          ints: 23
          ints: 24
          ints: 25
          ints: 26
          ints: 27
          ints: 28
          ints: 29
          ints: 30
          ints: 31
          ints: 32
          ints: 33
          ints: 34
          ints: 35
          ints: 36
          ints: 37
          ints: 38
          ints: 39
          ints: 40
          ints: 41
          ints: 42
          ints: 43
          ints: 44
          ints: 45
          ints: 46
          ints: 47
          ints: 48
          ints: 49
          ints: 50
          ints: 51
          ints: 52
          ints: 53
          ints: 54
          ints: 55
          ints: 56
          ints: 57
          ints: 58
          ints: 59
          ints: 60
          ints: 61
          ints: 62
          ints: 63
          ints: 64
          type: INTS
        }
        attribute {
          name: "nodes_treeids"
          ints: 0
          ints: 0
          ints: 0
          ints: 0
          ints: 0
          ints: 0
          ints: 0
          ints: 0
          ints: 0
          ints: 0
          ints: 0
          ints: 0
          ints: 0
          ints: 0
          ints: 0
          ints: 0
          ints: 0
          ints: 0
          ints: 0
          ints: 0
          ints: 0
          ints: 0
          ints: 0
          ints: 0
          ints: 0
          ints: 0
          ints: 0
          ints: 0
          ints: 0
          ints: 0
          ints: 0
          ints: 0
          ints: 0
          ints: 0
          ints: 0
          ints: 0
          ints: 0
          ints: 0
          ints: 0
          ints: 0
          ints: 0
          ints: 0
          ints: 0
          ints: 0
          ints: 0
          ints: 0
          ints: 0
          ints: 0
          ints: 0
          ints: 0
          ints: 0
          ints: 0
          ints: 0
          ints: 0
          ints: 0
          ints: 0
          ints: 0
          ints: 0
          ints: 0
          ints: 0
          ints: 0
          ints: 0
          ints: 0
          ints: 0
          ints: 0
          type: INTS
        }
        attribute {
          name: "nodes_truenodeids"
          ints: 1
          ints: 2
          ints: 3
          ints: 4
          ints: 5
          ints: 6
          ints: 7
          ints: 0
          ints: 0
          ints: 0
          ints: 11
          ints: 12
          ints: 0
          ints: 0
          ints: 15
          ints: 0
          ints: 0
          ints: 18
          ints: 19
          ints: 20
          ints: 0
          ints: 0
          ints: 23
          ints: 0
          ints: 0
          ints: 26
          ints: 27
          ints: 0
          ints: 0
          ints: 30
          ints: 0
          ints: 0
          ints: 33
          ints: 34
          ints: 35
          ints: 36
          ints: 0
          ints: 0
          ints: 39
          ints: 0
          ints: 0
          ints: 0
          ints: 43
          ints: 44
          ints: 45
          ints: 0
          ints: 0
          ints: 48
          ints: 0
          ints: 0
          ints: 0
          ints: 52
          ints: 0
          ints: 0
          ints: 55
          ints: 56
          ints: 0
          ints: 0
          ints: 59
          ints: 60
          ints: 61
          ints: 0
          ints: 0
          ints: 0
          ints: 0
          type: INTS
        }
        attribute {
          name: "nodes_values"
          floats: 6.034836292266846
          floats: 5.876404285430908
          floats: -0.15075266361236572
          floats: -2.4712271690368652
          floats: -5.089068412780762
          floats: 0.0206342414021492
          floats: -5.685237884521484
          floats: 0.0
          floats: 0.0
          floats: 0.0
          floats: -2.829955816268921
          floats: -4.215734481811523
          floats: 0.0
          floats: 0.0
          floats: 1.1709504127502441
          floats: 0.0
          floats: 0.0
          floats: 5.27365255355835
          floats: -2.3715643882751465
          floats: 3.568911552429199
          floats: 0.0
          floats: 0.0
          floats: 4.172868251800537
          floats: 0.0
          floats: 0.0
          floats: -1.7528834342956543
          floats: -2.1047894954681396
          floats: 0.0
          floats: 0.0
          floats: -1.1897543668746948
          floats: 0.0
          floats: 0.0
          floats: 0.3345984220504761
          floats: 0.2734143137931824
          floats: 5.071027755737305
          floats: 4.231259346008301
          floats: 0.0
          floats: 0.0
          floats: 5.360474586486816
          floats: 0.0
          floats: 0.0
          floats: 0.0
          floats: 5.786167144775391
          floats: 3.1307621002197266
          floats: 2.7009713649749756
          floats: 0.0
          floats: 0.0
          floats: 8.021790504455566
          floats: 0.0
          floats: 0.0
          floats: 0.0
          floats: 6.00127649307251
          floats: 0.0
          floats: 0.0
          floats: 6.364593505859375
          floats: -0.6150537133216858
          floats: 0.0
          floats: 0.0
          floats: 6.884072303771973
          floats: 6.642091274261475
          floats: -1.4426707029342651
          floats: 0.0
          floats: 0.0
          floats: 0.0
          floats: 0.0
          type: FLOATS
        }
        attribute {
          name: "post_transform"
          s: "NONE"
          type: STRING
        }
        attribute {
          name: "target_ids"
          ints: 0
          ints: 0
          ints: 0
          ints: 0
          ints: 0
          ints: 0
          ints: 0
          ints: 0
          ints: 0
          ints: 0
          ints: 0
          ints: 0
          ints: 0
          ints: 0
          ints: 0
          ints: 0
          ints: 0
          ints: 0
          ints: 0
          ints: 0
          ints: 0
          ints: 0
          ints: 0
          ints: 0
          ints: 0
          ints: 0
          ints: 0
          ints: 0
          ints: 0
          ints: 0
          ints: 0
          ints: 0
          ints: 0
          type: INTS
        }
        attribute {
          name: "target_nodeids"
          ints: 7
          ints: 8
          ints: 9
          ints: 12
          ints: 13
          ints: 15
          ints: 16
          ints: 20
          ints: 21
          ints: 23
          ints: 24
          ints: 27
          ints: 28
          ints: 30
          ints: 31
          ints: 36
          ints: 37
          ints: 39
          ints: 40
          ints: 41
          ints: 45
          ints: 46
          ints: 48
          ints: 49
          ints: 50
          ints: 52
          ints: 53
          ints: 56
          ints: 57
          ints: 61
          ints: 62
          ints: 63
          ints: 64
          type: INTS
        }
        attribute {
          name: "target_treeids"
          ints: 0
          ints: 0
          ints: 0
          ints: 0
          ints: 0
          ints: 0
          ints: 0
          ints: 0
          ints: 0
          ints: 0
          ints: 0
          ints: 0
          ints: 0
          ints: 0
          ints: 0
          ints: 0
          ints: 0
          ints: 0
          ints: 0
          ints: 0
          ints: 0
          ints: 0
          ints: 0
          ints: 0
          ints: 0
          ints: 0
          ints: 0
          ints: 0
          ints: 0
          ints: 0
          ints: 0
          ints: 0
          ints: 0
          type: INTS
        }
        attribute {
          name: "target_weights"
          floats: 7.0
          floats: 8.0
          floats: 9.0
          floats: 12.0
          floats: 13.0
          floats: 15.0
          floats: 16.0
          floats: 20.0
          floats: 21.0
          floats: 23.0
          floats: 24.0
          floats: 27.0
          floats: 28.0
          floats: 30.0
          floats: 31.0
          floats: 36.0
          floats: 37.0
          floats: 39.0
          floats: 40.0
          floats: 41.0
          floats: 45.0
          floats: 46.0
          floats: 48.0
          floats: 49.0
          floats: 50.0
          floats: 52.0
          floats: 53.0
          floats: 56.0
          floats: 57.0
          floats: 61.0
          floats: 62.0
          floats: 63.0
          floats: 64.0
          type: FLOATS
        }
        domain: "ai.onnx.ml"
      }
      node {
        input: "path_length0_output0"
        output: "path_length0_Y0"
        name: "path_length0_LabelEncoder"
        op_type: "LabelEncoder"
        attribute {
          name: "keys_int64s"
          ints: 6
          ints: 8
          ints: 9
          ints: 12
          ints: 13
          ints: 14
          ints: 18
          ints: 19
          ints: 20
          ints: 22
          ints: 24
          ints: 25
          ints: 30
          ints: 31
          ints: 32
          ints: 34
          ints: 35
          ints: 39
          ints: 40
          ints: 41
          ints: 44
          ints: 45
          ints: 47
          ints: 48
          ints: 49
          ints: 56
          ints: 57
          ints: 58
          ints: 61
          ints: 62
          ints: 64
          ints: 65
          ints: 67
          ints: 68
          ints: 73
          ints: 74
          ints: 76
          ints: 77
          ints: 80
          ints: 81
          ints: 83
          ints: 84
          ints: 85
          ints: 86
          type: INTS
        }
        attribute {
          name: "values_floats"
          floats: 7.0
          floats: 8.0
          floats: 8.0
          floats: 8.0
          floats: 8.0
          floats: 7.0
          floats: 8.0
          floats: 8.0
          floats: 7.0
          floats: 7.0
          floats: 8.0
          floats: 8.0
          floats: 8.0
          floats: 8.0
          floats: 7.0
          floats: 7.0
          floats: 7.0
          floats: 8.0
          floats: 8.0
          floats: 7.0
          floats: 8.0
          floats: 8.0
          floats: 8.0
          floats: 8.0
          floats: 3.0
          floats: 8.0
          floats: 8.0
          floats: 7.0
          floats: 8.0
          floats: 8.0
          floats: 8.0
          floats: 8.0
          floats: 6.0
          floats: 6.0
          floats: 8.0
          floats: 8.0
          floats: 8.0
          floats: 8.0
          floats: 8.0
          floats: 8.0
          floats: 8.0
          floats: 8.0
          floats: 5.0
          floats: 3.0
          type: FLOATS
        }
        domain: "ai.onnx.ml"
      }
      node {
        input: "node_sample0_output02"
        output: "node_sample0_Y02"
        name: "node_sample0_LabelEncoder"
        op_type: "LabelEncoder"
        attribute {
          name: "keys_int64s"
          ints: 6
          ints: 8
          ints: 9
          ints: 12
          ints: 13
          ints: 14
          ints: 18
          ints: 19
          ints: 20
          ints: 22
          ints: 24
          ints: 25
          ints: 30
          ints: 31
          ints: 32
          ints: 34
          ints: 35
          ints: 39
          ints: 40
          ints: 41
          ints: 44
          ints: 45
          ints: 47
          ints: 48
          ints: 49
          ints: 56
          ints: 57
          ints: 58
          ints: 61
          ints: 62
          ints: 64
          ints: 65
          ints: 67
          ints: 68
          ints: 73
          ints: 74
          ints: 76
          ints: 77
          ints: 80
          ints: 81
          ints: 83
          ints: 84
          ints: 85
          ints: 86
          type: INTS
        }
        attribute {
          name: "values_floats"
          floats: 1.0
          floats: 1.0
          floats: 1.0
          floats: 1.0
          floats: 4.0
          floats: 1.0
          floats: 1.0
          floats: 1.0
          floats: 1.0
          floats: 1.0
          floats: 1.0
          floats: 1.0
          floats: 1.0
          floats: 1.0
          floats: 1.0
          floats: 1.0
          floats: 1.0
          floats: 2.0
          floats: 2.0
          floats: 1.0
          floats: 1.0
          floats: 2.0
          floats: 1.0
          floats: 3.0
          floats: 1.0
          floats: 2.0
          floats: 5.0
          floats: 1.0
          floats: 1.0
          floats: 5.0
          floats: 1.0
          floats: 1.0
          floats: 1.0
          floats: 1.0
          floats: 13.0
          floats: 5.0
          floats: 5.0
          floats: 1.0
          floats: 2.0
          floats: 19.0
          floats: 1.0
          floats: 1.0
          floats: 1.0
          floats: 1.0
          type: FLOATS
        }
        domain: "ai.onnx.ml"
      }
      node {
        input: "node_sample1_Y0"
        output: "path_length1_output0"
        name: "path_length1_Cast"
        op_type: "Cast"
        attribute {
          name: "to"
          i: 7
          type: INT
        }
        domain: ""
      }
      node {
        input: "node_sample1_Y0"
        output: "node_sample1_output02"
        name: "node_sample1_Cast"
        op_type: "Cast"
        attribute {
          name: "to"
          i: 7
          type: INT
        }
        domain: ""
      }
      node {
        input: "node_sample2_Y0"
        output: "path_length2_output0"
        name: "path_length2_Cast"
        op_type: "Cast"
        attribute {
          name: "to"
          i: 7
          type: INT
        }
        domain: ""
      }
      node {
        input: "node_sample2_Y0"
        output: "node_sample2_output02"
        name: "node_sample2_Cast"
        op_type: "Cast"
        attribute {
          name: "to"
          i: 7
          type: INT
        }
        domain: ""
      }
      node {
        input: "node_sample0_Y02"
        input: "path_length0_Reshapecst"
        output: "node_sample0_reshaped0"
        name: "node_sample0_Reshape"
        op_type: "Reshape"
        attribute {
          name: "allowzero"
          i: 0
          type: INT
        }
        domain: ""
      }
      node {
        input: "path_length0_Y0"
        input: "path_length0_Reshapecst"
        output: "path_length0_reshaped0"
        name: "path_length0_Reshape"
        op_type: "Reshape"
        attribute {
          name: "allowzero"
          i: 0
          type: INT
        }
        domain: ""
      }
      node {
        input: "path_length1_output0"
        output: "path_length1_Y0"
        name: "path_length1_LabelEncoder"
        op_type: "LabelEncoder"
        attribute {
          name: "keys_int64s"
          ints: 2
          ints: 7
          ints: 8
          ints: 11
          ints: 12
          ints: 14
          ints: 15
          ints: 17
          ints: 19
          ints: 20
          ints: 21
          ints: 26
          ints: 27
          ints: 28
          ints: 32
          ints: 34
          ints: 35
          ints: 37
          ints: 38
          ints: 40
          ints: 43
          ints: 44
          ints: 45
          ints: 50
          ints: 52
          ints: 53
          ints: 55
          ints: 57
          ints: 58
          ints: 60
          ints: 61
          ints: 66
          ints: 67
          ints: 69
          ints: 70
          ints: 73
          ints: 74
          ints: 76
          ints: 77
          ints: 79
          ints: 80
          type: INTS
        }
        attribute {
          name: "values_floats"
          floats: 3.0
          floats: 7.0
          floats: 7.0
          floats: 8.0
          floats: 8.0
          floats: 8.0
          floats: 8.0
          floats: 6.0
          floats: 7.0
          floats: 7.0
          floats: 4.0
          floats: 6.0
          floats: 6.0
          floats: 5.0
          floats: 7.0
          floats: 8.0
          floats: 8.0
          floats: 7.0
          floats: 7.0
          floats: 6.0
          floats: 8.0
          floats: 8.0
          floats: 7.0
          floats: 7.0
          floats: 8.0
          floats: 8.0
          floats: 7.0
          floats: 8.0
          floats: 8.0
          floats: 6.0
          floats: 6.0
          floats: 8.0
          floats: 8.0
          floats: 8.0
          floats: 8.0
          floats: 8.0
          floats: 8.0
          floats: 8.0
          floats: 8.0
          floats: 6.0
          floats: 6.0
          type: FLOATS
        }
        domain: "ai.onnx.ml"
      }
      node {
        input: "node_sample1_output02"
        output: "node_sample1_Y02"
        name: "node_sample1_LabelEncoder"
        op_type: "LabelEncoder"
        attribute {
          name: "keys_int64s"
          ints: 2
          ints: 7
          ints: 8
          ints: 11
          ints: 12
          ints: 14
          ints: 15
          ints: 17
          ints: 19
          ints: 20
          ints: 21
          ints: 26
          ints: 27
          ints: 28
          ints: 32
          ints: 34
          ints: 35
          ints: 37
          ints: 38
          ints: 40
          ints: 43
          ints: 44
          ints: 45
          ints: 50
          ints: 52
          ints: 53
          ints: 55
          ints: 57
          ints: 58
          ints: 60
          ints: 61
          ints: 66
          ints: 67
          ints: 69
          ints: 70
          ints: 73
          ints: 74
          ints: 76
          ints: 77
          ints: 79
          ints: 80
          type: INTS
        }
        attribute {
          name: "values_floats"
          floats: 1.0
          floats: 1.0
          floats: 1.0
          floats: 1.0
          floats: 1.0
          floats: 3.0
          floats: 2.0
          floats: 1.0
          floats: 1.0
          floats: 1.0
          floats: 1.0
          floats: 1.0
          floats: 1.0
          floats: 1.0
          floats: 1.0
          floats: 2.0
          floats: 1.0
          floats: 1.0
          floats: 1.0
          floats: 1.0
          floats: 2.0
          floats: 1.0
          floats: 1.0
          floats: 1.0
          floats: 11.0
          floats: 1.0
          floats: 1.0
          floats: 1.0
          floats: 5.0
          floats: 1.0
          floats: 1.0
          floats: 5.0
          floats: 3.0
          floats: 2.0
          floats: 4.0
          floats: 2.0
          floats: 2.0
          floats: 4.0
          floats: 26.0
          floats: 1.0
          floats: 1.0
          type: FLOATS
        }
        domain: "ai.onnx.ml"
      }
      node {
        input: "path_length2_output0"
        output: "path_length2_Y0"
        name: "path_length2_LabelEncoder"
        op_type: "LabelEncoder"
        attribute {
          name: "keys_int64s"
          ints: 7
          ints: 8
          ints: 9
          ints: 12
          ints: 13
          ints: 15
          ints: 16
          ints: 20
          ints: 21
          ints: 23
          ints: 24
          ints: 27
          ints: 28
          ints: 30
          ints: 31
          ints: 36
          ints: 37
          ints: 39
          ints: 40
          ints: 41
          ints: 45
          ints: 46
          ints: 48
          ints: 49
          ints: 50
          ints: 52
          ints: 53
          ints: 56
          ints: 57
          ints: 61
          ints: 62
          ints: 63
          ints: 64
          type: INTS
        }
        attribute {
          name: "values_floats"
          floats: 8.0
          floats: 8.0
          floats: 7.0
          floats: 8.0
          floats: 8.0
          floats: 8.0
          floats: 8.0
          floats: 8.0
          floats: 8.0
          floats: 8.0
          floats: 8.0
          floats: 8.0
          floats: 8.0
          floats: 8.0
          floats: 8.0
          floats: 8.0
          floats: 8.0
          floats: 8.0
          floats: 8.0
          floats: 6.0
          floats: 8.0
          floats: 8.0
          floats: 8.0
          floats: 8.0
          floats: 6.0
          floats: 4.0
          floats: 4.0
          floats: 4.0
          floats: 4.0
          floats: 6.0
          floats: 6.0
          floats: 5.0
          floats: 4.0
          type: FLOATS
        }
        domain: "ai.onnx.ml"
      }
      node {
        input: "node_sample2_output02"
        output: "node_sample2_Y02"
        name: "node_sample2_LabelEncoder"
        op_type: "LabelEncoder"
        attribute {
          name: "keys_int64s"
          ints: 7
          ints: 8
          ints: 9
          ints: 12
          ints: 13
          ints: 15
          ints: 16
          ints: 20
          ints: 21
          ints: 23
          ints: 24
          ints: 27
          ints: 28
          ints: 30
          ints: 31
          ints: 36
          ints: 37
          ints: 39
          ints: 40
          ints: 41
          ints: 45
          ints: 46
          ints: 48
          ints: 49
          ints: 50
          ints: 52
          ints: 53
          ints: 56
          ints: 57
          ints: 61
          ints: 62
          ints: 63
          ints: 64
          type: INTS
        }
        attribute {
          name: "values_floats"
          floats: 1.0
          floats: 2.0
          floats: 1.0
          floats: 11.0
          floats: 15.0
          floats: 2.0
          floats: 1.0
          floats: 1.0
          floats: 1.0
          floats: 10.0
          floats: 4.0
          floats: 1.0
          floats: 1.0
          floats: 2.0
          floats: 2.0
          floats: 1.0
          floats: 1.0
          floats: 1.0
          floats: 1.0
          floats: 1.0
          floats: 1.0
          floats: 1.0
          floats: 28.0
          floats: 1.0
          floats: 1.0
          floats: 1.0
          floats: 1.0
          floats: 1.0
          floats: 1.0
          floats: 1.0
          floats: 1.0
          floats: 1.0
          floats: 1.0
          type: FLOATS
        }
        domain: "ai.onnx.ml"
      }
      node {
        input: "node_sample0_reshaped0"
        input: "dec_Powcst"
        output: "plus2_0_C0"
        name: "plus2_0_Greater"
        op_type: "Greater"
        domain: ""
      }
      node {
        input: "node_sample0_reshaped0"
        input: "dec_Powcst"
        output: "eq2_0_C0"
        name: "eq2_0_Equal"
        op_type: "Equal"
        domain: ""
      }
      node {
        input: "node_sample1_Y02"
        input: "path_length0_Reshapecst"
        output: "node_sample1_reshaped0"
        name: "node_sample1_Reshape"
        op_type: "Reshape"
        attribute {
          name: "allowzero"
          i: 0
          type: INT
        }
        domain: ""
      }
      node {
        input: "path_length1_Y0"
        input: "path_length0_Reshapecst"
        output: "path_length1_reshaped0"
        name: "path_length1_Reshape"
        op_type: "Reshape"
        attribute {
          name: "allowzero"
          i: 0
          type: INT
        }
        domain: ""
      }
      node {
        input: "path_length2_Y0"
        input: "path_length0_Reshapecst"
        output: "path_length2_reshaped0"
        name: "path_length2_Reshape"
        op_type: "Reshape"
        attribute {
          name: "allowzero"
          i: 0
          type: INT
        }
        domain: ""
      }
      node {
        input: "node_sample2_Y02"
        input: "path_length0_Reshapecst"
        output: "node_sample2_reshaped0"
        name: "node_sample2_Reshape"
        op_type: "Reshape"
        attribute {
          name: "allowzero"
          i: 0
          type: INT
        }
        domain: ""
      }
      node {
        input: "plus2_0_C0"
        output: "plus2_0_output0"
        name: "plus2_0_Cast"
        op_type: "Cast"
        attribute {
          name: "to"
          i: 1
          type: INT
        }
        domain: ""
      }
      node {
        input: "eq2_0_C0"
        output: "eq2_0_output0"
        name: "eq2_0_Cast"
        op_type: "Cast"
        attribute {
          name: "to"
          i: 1
          type: INT
        }
        domain: ""
      }
      node {
        input: "node_sample1_reshaped0"
        input: "dec_Powcst"
        output: "plus2_1_C0"
        name: "plus2_1_Greater"
        op_type: "Greater"
        domain: ""
      }
      node {
        input: "node_sample1_reshaped0"
        input: "dec_Powcst"
        output: "eq2_1_C0"
        name: "eq2_1_Equal"
        op_type: "Equal"
        domain: ""
      }
      node {
        input: "node_sample2_reshaped0"
        input: "dec_Powcst"
        output: "eq2_2_C0"
        name: "eq2_2_Equal"
        op_type: "Equal"
        domain: ""
      }
      node {
        input: "node_sample2_reshaped0"
        input: "dec_Powcst"
        output: "plus2_2_C0"
        name: "plus2_2_Greater"
        op_type: "Greater"
        domain: ""
      }
      node {
        input: "plus2_0_output0"
        input: "node_sample0_reshaped0"
        output: "eqp2ps0_C0"
        name: "eqp2ps0_Mul"
        op_type: "Mul"
        domain: ""
      }
      node {
        input: "plus2_1_C0"
        output: "plus2_1_output0"
        name: "plus2_1_Cast"
        op_type: "Cast"
        attribute {
          name: "to"
          i: 1
          type: INT
        }
        domain: ""
      }
      node {
        input: "eq2_1_C0"
        output: "eq2_1_output0"
        name: "eq2_1_Cast"
        op_type: "Cast"
        attribute {
          name: "to"
          i: 1
          type: INT
        }
        domain: ""
      }
      node {
        input: "eq2_2_C0"
        output: "eq2_2_output0"
        name: "eq2_2_Cast"
        op_type: "Cast"
        attribute {
          name: "to"
          i: 1
          type: INT
        }
        domain: ""
      }
      node {
        input: "plus2_2_C0"
        output: "plus2_2_output0"
        name: "plus2_2_Cast"
        op_type: "Cast"
        attribute {
          name: "to"
          i: 1
          type: INT
        }
        domain: ""
      }
      node {
        input: "eqp2ps0_C0"
        input: "eqp2p_m1_0_Addcst"
        output: "eqp2p_m1_0_C0"
        name: "eqp2p_m1_0_Add"
        op_type: "Add"
        domain: ""
      }
      node {
        input: "eqp2ps0_C0"
        input: "eqp2p_m1_0_Maxcst"
        output: "eqp_ns0_max0"
        name: "eqp_ns0_Max"
        op_type: "Max"
        domain: ""
      }
      node {
        input: "plus2_1_output0"
        input: "node_sample1_reshaped0"
        output: "eqp2ps1_C0"
        name: "eqp2ps1_Mul"
        op_type: "Mul"
        domain: ""
      }
      node {
        input: "plus2_2_output0"
        input: "node_sample2_reshaped0"
        output: "eqp2ps2_C0"
        name: "eqp2ps2_Mul"
        op_type: "Mul"
        domain: ""
      }
      node {
        input: "eqp2p_m1_0_C0"
        input: "eqp2p_m1_0_Maxcst"
        output: "eqp2p_m1_0_max0"
        name: "eqp2p_m1_0_Max"
        op_type: "Max"
        domain: ""
      }
      node {
        input: "eqp2p_m1_0_C0"
        input: "eqp2p_m1_0_Maxcst1"
        output: "eqp2p_m1_0_max02"
        name: "eqp2p_m1_0_Max1"
        op_type: "Max"
        domain: ""
      }
      node {
        input: "eqp2ps1_C0"
        input: "eqp2p_m1_0_Maxcst"
        output: "eqp_ns1_max0"
        name: "eqp_ns1_Max"
        op_type: "Max"
        domain: ""
      }
      node {
        input: "eqp2ps1_C0"
        input: "eqp2p_m1_0_Addcst"
        output: "eqp2p_m1_1_C0"
        name: "eqp2p_m1_1_Add"
        op_type: "Add"
        domain: ""
      }
      node {
        input: "eqp2ps2_C0"
        input: "eqp2p_m1_0_Maxcst"
        output: "eqp_ns2_max0"
        name: "eqp_ns2_Max"
        op_type: "Max"
        domain: ""
      }
      node {
        input: "eqp2ps2_C0"
        input: "eqp2p_m1_0_Addcst"
        output: "eqp2p_m1_2_C0"
        name: "eqp2p_m1_2_Add"
        op_type: "Add"
        domain: ""
      }
      node {
        input: "eqp2p_m1_0_max02"
        input: "eqp_ns0_max0"
        output: "eqp_ns0_C01"
        name: "eqp_ns0_Div"
        op_type: "Div"
        domain: ""
      }
      node {
        input: "eqp2p_m1_0_max0"
        output: "eqp_log0_output0"
        name: "eqp_log0_Log"
        op_type: "Log"
        domain: ""
      }
      node {
        input: "eqp2p_m1_1_C0"
        input: "eqp2p_m1_0_Maxcst"
        output: "eqp2p_m1_1_max0"
        name: "eqp2p_m1_1_Max"
        op_type: "Max"
        domain: ""
      }
      node {
        input: "eqp2p_m1_1_C0"
        input: "eqp2p_m1_0_Maxcst1"
        output: "eqp2p_m1_1_max02"
        name: "eqp2p_m1_1_Max1"
        op_type: "Max"
        domain: ""
      }
      node {
        input: "eqp2p_m1_2_C0"
        input: "eqp2p_m1_0_Maxcst1"
        output: "eqp2p_m1_2_max02"
        name: "eqp2p_m1_2_Max1"
        op_type: "Max"
        domain: ""
      }
      node {
        input: "eqp2p_m1_2_C0"
        input: "eqp2p_m1_0_Maxcst"
        output: "eqp2p_m1_2_max0"
        name: "eqp2p_m1_2_Max"
        op_type: "Max"
        domain: ""
      }
      node {
        input: "eqp_log0_output0"
        input: "eqp_log0_Addcst"
        output: "eqp_log0_C01"
        name: "eqp_log0_Add"
        op_type: "Add"
        domain: ""
      }
      node {
        input: "eqp_ns0_C01"
        input: "eqp_ns0_Mulcst"
        output: "eqp_ns0_C0"
        name: "eqp_ns0_Mul"
        op_type: "Mul"
        domain: ""
      }
      node {
        input: "eqp2p_m1_1_max02"
        input: "eqp_ns1_max0"
        output: "eqp_ns1_C01"
        name: "eqp_ns1_Div"
        op_type: "Div"
        domain: ""
      }
      node {
        input: "eqp2p_m1_1_max0"
        output: "eqp_log1_output0"
        name: "eqp_log1_Log"
        op_type: "Log"
        domain: ""
      }
      node {
        input: "eqp2p_m1_2_max02"
        input: "eqp_ns2_max0"
        output: "eqp_ns2_C01"
        name: "eqp_ns2_Div"
        op_type: "Div"
        domain: ""
      }
      node {
        input: "eqp2p_m1_2_max0"
        output: "eqp_log2_output0"
        name: "eqp_log2_Log"
        op_type: "Log"
        domain: ""
      }
      node {
        input: "eqp_log0_C01"
        input: "dec_Powcst"
        output: "eqp_log0_C0"
        name: "eqp_log0_Mul"
        op_type: "Mul"
        domain: ""
      }
      node {
        input: "eqp_log1_output0"
        input: "eqp_log0_Addcst"
        output: "eqp_log1_C01"
        name: "eqp_log1_Add"
        op_type: "Add"
        domain: ""
      }
      node {
        input: "eqp_ns1_C01"
        input: "eqp_ns0_Mulcst"
        output: "eqp_ns1_C0"
        name: "eqp_ns1_Mul"
        op_type: "Mul"
        domain: ""
      }
      node {
        input: "eqp_ns2_C01"
        input: "eqp_ns0_Mulcst"
        output: "eqp_ns2_C0"
        name: "eqp_ns2_Mul"
        op_type: "Mul"
        domain: ""
      }
      node {
        input: "eqp_log2_output0"
        input: "eqp_log0_Addcst"
        output: "eqp_log2_C01"
        name: "eqp_log2_Add"
        op_type: "Add"
        domain: ""
      }
      node {
        input: "eqp_log0_C0"
        input: "eqp_ns0_C0"
        output: "avlog0_C01"
        name: "avlog0_Add"
        op_type: "Add"
        domain: ""
      }
      node {
        input: "eqp_log1_C01"
        input: "dec_Powcst"
        output: "eqp_log1_C0"
        name: "eqp_log1_Mul"
        op_type: "Mul"
        domain: ""
      }
      node {
        input: "eqp_log2_C01"
        input: "dec_Powcst"
        output: "eqp_log2_C0"
        name: "eqp_log2_Mul"
        op_type: "Mul"
        domain: ""
      }
      node {
        input: "avlog0_C01"
        input: "plus2_0_output0"
        output: "avlog0_C0"
        name: "avlog0_Mul"
        op_type: "Mul"
        domain: ""
      }
      node {
        input: "eqp_log1_C0"
        input: "eqp_ns1_C0"
        output: "avlog1_C01"
        name: "avlog1_Add"
        op_type: "Add"
        domain: ""
      }
      node {
        input: "eqp_log2_C0"
        input: "eqp_ns2_C0"
        output: "avlog2_C01"
        name: "avlog2_Add"
        op_type: "Add"
        domain: ""
      }
      node {
        input: "eq2_0_output0"
        input: "avlog0_C0"
        output: "avpl0_C0"
        name: "avpl0_Add"
        op_type: "Add"
        domain: ""
      }
      node {
        input: "avlog1_C01"
        input: "plus2_1_output0"
        output: "avlog1_C0"
        name: "avlog1_Mul"
        op_type: "Mul"
        domain: ""
      }
      node {
        input: "avlog2_C01"
        input: "plus2_2_output0"
        output: "avlog2_C0"
        name: "avlog2_Mul"
        op_type: "Mul"
        domain: ""
      }
      node {
        input: "path_length0_reshaped0"
        input: "avpl0_C0"
        output: "depth0_C01"
        name: "depth0_Add"
        op_type: "Add"
        domain: ""
      }
      node {
        input: "eq2_1_output0"
        input: "avlog1_C0"
        output: "avpl1_C0"
        name: "avpl1_Add"
        op_type: "Add"
        domain: ""
      }
      node {
        input: "eq2_2_output0"
        input: "avlog2_C0"
        output: "avpl2_C0"
        name: "avpl2_Add"
        op_type: "Add"
        domain: ""
      }
      node {
        input: "depth0_C01"
        input: "eqp2p_m1_0_Addcst"
        output: "depth0_C0"
        name: "depth0_Add1"
        op_type: "Add"
        domain: ""
      }
      node {
        input: "path_length1_reshaped0"
        input: "avpl1_C0"
        output: "depth1_C01"
        name: "depth1_Add"
        op_type: "Add"
        domain: ""
      }
      node {
        input: "path_length2_reshaped0"
        input: "avpl2_C0"
        output: "depth2_C01"
        name: "depth2_Add"
        op_type: "Add"
        domain: ""
      }
      node {
        input: "depth1_C01"
        input: "eqp2p_m1_0_Addcst"
        output: "depth1_C0"
        name: "depth1_Add1"
        op_type: "Add"
        domain: ""
      }
      node {
        input: "depth2_C01"
        input: "eqp2p_m1_0_Addcst"
        output: "depth2_C0"
        name: "depth2_Add1"
        op_type: "Add"
        domain: ""
      }
      node {
        input: "depth0_C0"
        input: "depth1_C0"
        input: "depth2_C0"
        output: "dec_sum0"
        name: "dec_Sum"
        op_type: "Sum"
        domain: ""
      }
      node {
        input: "dec_sum0"
        input: "dec_Divcst"
        output: "dec_C0"
        name: "dec_Div"
        op_type: "Div"
        domain: ""
      }
      node {
        input: "dec_C0"
        output: "dec_Y01"
        name: "dec_Neg"
        op_type: "Neg"
        domain: ""
      }
      node {
        input: "dec_Powcst"
        input: "dec_Y01"
        output: "dec_Z0"
        name: "dec_Pow"
        op_type: "Pow"
        domain: ""
      }
      node {
        input: "dec_Z0"
        output: "dec_Y0"
        name: "dec_Neg1"
        op_type: "Neg"
        domain: ""
      }
      node {
        input: "dec_Y0"
        input: "dec_Addcst"
        output: "scores"
        name: "dec_Add"
        op_type: "Add"
        domain: ""
      }
      node {
        input: "scores"
        input: "eqp2p_m1_0_Maxcst1"
        output: "predict_C01"
        name: "predict_Less"
        op_type: "Less"
        domain: ""
      }
      node {
        input: "predict_C01"
        output: "predict_output0"
        name: "predict_Cast"
        op_type: "Cast"
        attribute {
          name: "to"
          i: 7
          type: INT
        }
        domain: ""
      }
      node {
        input: "predict_output0"
        input: "predict_Mulcst"
        output: "predict_C0"
        name: "predict_Mul"
        op_type: "Mul"
        domain: ""
      }
      node {
        input: "predict_C0"
        input: "predict_Addcst"
        output: "label"
        name: "predict_Add"
        op_type: "Add"
        domain: ""
      }
      name: "ONNX(IsolationForest)"
      initializer {
        dims: 1
        data_type: 1
        float_data: 2.0
        name: "dec_Powcst"
      }
      initializer {
        dims: 2
        data_type: 7
        int64_data: 0
        int64_data: 1
        name: "node_sample0_Gathercst"
      }
      initializer {
        dims: 2
        data_type: 7
        int64_data: -1
        int64_data: 1
        name: "path_length0_Reshapecst"
      }
      initializer {
        dims: 1
        data_type: 1
        float_data: -1.0
        name: "eqp2p_m1_0_Addcst"
      }
      initializer {
        dims: 1
        data_type: 1
        float_data: 1.0
        name: "eqp2p_m1_0_Maxcst"
      }
      initializer {
        dims: 1
        data_type: 1
        float_data: 0.5772156715393066
        name: "eqp_log0_Addcst"
      }
      initializer {
        dims: 1
        data_type: 1
        float_data: 0.0
        name: "eqp2p_m1_0_Maxcst1"
      }
      initializer {
        dims: 1
        data_type: 1
        float_data: -2.0
        name: "eqp_ns0_Mulcst"
      }
      initializer {
        dims: 1
        dims: 1
        data_type: 1
        float_data: 25.094013214111328
        name: "dec_Divcst"
      }
      initializer {
        dims: 1
        data_type: 1
        float_data: 0.5
        name: "dec_Addcst"
      }
      initializer {
        dims: 1
        data_type: 7
        int64_data: -2
        name: "predict_Mulcst"
      }
      initializer {
        dims: 1
        data_type: 7
        int64_data: 1
        name: "predict_Addcst"
      }
      input {
        name: "X"
        type {
          tensor_type {
            elem_type: 1
            shape {
              dim {
              }
              dim {
                dim_value: 2
              }
            }
          }
        }
      }
      output {
        name: "label"
        type {
          tensor_type {
            elem_type: 7
            shape {
              dim {
              }
              dim {
                dim_value: 1
              }
            }
          }
        }
      }
      output {
        name: "scores"
        type {
          tensor_type {
            elem_type: 1
            shape {
              dim {
              }
              dim {
                dim_value: 1
              }
            }
          }
        }
      }
    }
    opset_import {
      domain: ""
      version: 15
    }
    opset_import {
      domain: "ai.onnx.ml"
      version: 2
    }





.. GENERATED FROM PYTHON SOURCE LINES 64-66

The last line shows the opsets.
Let's extract it.

.. GENERATED FROM PYTHON SOURCE LINES 66-71

.. code-block:: default


    domains = onx.opset_import
    for dom in domains:
        print("domain: %r, version: %r" % (dom.domain, dom.version))





.. rst-class:: sphx-glr-script-out

 Out:

 .. code-block:: none

    domain: '', version: 15
    domain: 'ai.onnx.ml', version: 2




.. GENERATED FROM PYTHON SOURCE LINES 72-74

There are two opsets, one for standard operators,
the other for machine learning operators.

.. GENERATED FROM PYTHON SOURCE LINES 76-81

ONNX and opset
++++++++++++++

The converter can convert a model to an older opset
than the default one, from 1 to the last available one.

.. GENERATED FROM PYTHON SOURCE LINES 81-99

.. code-block:: default



    def get_domain_opset(onx):
        domains = onx.opset_import
        res = [{'domain': dom.domain, 'version': dom.version}
               for dom in domains]
        return {d['domain']: d['version'] for d in res}


    for opset in range(1, onnx_opset_version() + 1):
        try:
            onx = to_onnx(model, X[:1].astype(numpy.float32), target_opset=opset)
        except RuntimeError as e:
            print('target: %r error: %r' % (opset, e))
            continue
        nodes = len(onx.graph.node)
        print('target: %r --> %s %d' % (opset, get_domain_opset(onx), nodes))





.. rst-class:: sphx-glr-script-out

 Out:

 .. code-block:: none

    target: 1 error: RuntimeError("Operator 'OnnxReshape_5': requested version 1 < 5 schema version.")
    target: 2 error: RuntimeError("Operator 'OnnxReshape_5': requested version 2 < 5 schema version.")
    target: 3 error: RuntimeError("Operator 'OnnxReshape_5': requested version 3 < 5 schema version.")
    target: 4 error: RuntimeError("Operator 'OnnxReshape_5': requested version 4 < 5 schema version.")
    target: 5 --> {'ai.onnx.ml': 2, '': 5} 91
    target: 6 --> {'ai.onnx.ml': 2, '': 6} 91
    target: 7 --> {'': 7, 'ai.onnx.ml': 2} 91
    target: 8 --> {'': 8, 'ai.onnx.ml': 2} 91
    target: 9 --> {'ai.onnx.ml': 2, '': 9} 91
    target: 10 --> {'ai.onnx.ml': 2, '': 10} 91
    target: 11 --> {'ai.onnx.ml': 2, '': 11} 91
    target: 12 --> {'': 12, 'ai.onnx.ml': 2} 91
    target: 13 --> {'': 13, 'ai.onnx.ml': 2} 91
    target: 14 --> {'': 14, 'ai.onnx.ml': 2} 91
    target: 15 --> {'': 15, 'ai.onnx.ml': 2} 91




.. GENERATED FROM PYTHON SOURCE LINES 100-111

It shows that the model cannot be converted for opset
below 5. Operator `Reshape <https://github.com/onnx/
onnx/blob/master/docs/Operators.md#Reshape>`_ changed in
opset 5: a parameter became an input. The converter
does not support *opset < 5* because runtimes usually do not.

Other opsets
++++++++++++

The previous example changed the opset of the main domain
``''`` but the other opset domain can be changed as well.

.. GENERATED FROM PYTHON SOURCE LINES 111-123

.. code-block:: default


    for opset in range(9, onnx_opset_version() + 1):
        for opset_ml in range(1, 3):
            tops = {'': opset, 'ai.onnx.ml': opset_ml}
            try:
                onx = to_onnx(
                    model, X[:1].astype(numpy.float32), target_opset=tops)
            except RuntimeError as e:
                print('target: %r error: %r' % (opset, e))
                continue
            nodes = len(onx.graph.node)
            print('target: %r --> %s %d' % (opset, get_domain_opset(onx), nodes))




.. rst-class:: sphx-glr-script-out

 Out:

 .. code-block:: none

    target: 9 error: RuntimeError("This converter requires at least opset 2 for domain 'ai.onnx.ml'.")
    target: 9 --> {'ai.onnx.ml': 2, '': 9} 91
    target: 10 error: RuntimeError("This converter requires at least opset 2 for domain 'ai.onnx.ml'.")
    target: 10 --> {'ai.onnx.ml': 2, '': 10} 91
    target: 11 error: RuntimeError("This converter requires at least opset 2 for domain 'ai.onnx.ml'.")
    target: 11 --> {'ai.onnx.ml': 2, '': 11} 91
    target: 12 error: RuntimeError("This converter requires at least opset 2 for domain 'ai.onnx.ml'.")
    target: 12 --> {'': 12, 'ai.onnx.ml': 2} 91
    target: 13 error: RuntimeError("This converter requires at least opset 2 for domain 'ai.onnx.ml'.")
    target: 13 --> {'': 13, 'ai.onnx.ml': 2} 91
    target: 14 error: RuntimeError("This converter requires at least opset 2 for domain 'ai.onnx.ml'.")
    target: 14 --> {'': 14, 'ai.onnx.ml': 2} 91
    target: 15 error: RuntimeError("This converter requires at least opset 2 for domain 'ai.onnx.ml'.")
    target: 15 --> {'': 15, 'ai.onnx.ml': 2} 91





.. rst-class:: sphx-glr-timing

   **Total running time of the script:** ( 0 minutes  3.858 seconds)


.. _sphx_glr_download_auto_examples_plot_opset.py:


.. only :: html

 .. container:: sphx-glr-footer
    :class: sphx-glr-footer-example


  .. container:: binder-badge

    .. image:: images/binder_badge_logo.svg
      :target: https://mybinder.org/v2/gh/onnx/./master?filepath=auto_examples/auto_examples/plot_opset.ipynb
      :alt: Launch binder
      :width: 150 px


  .. container:: sphx-glr-download sphx-glr-download-python

     :download:`Download Python source code: plot_opset.py <plot_opset.py>`



  .. container:: sphx-glr-download sphx-glr-download-jupyter

     :download:`Download Jupyter notebook: plot_opset.ipynb <plot_opset.ipynb>`


.. only:: html

 .. rst-class:: sphx-glr-signature

    `Gallery generated by Sphinx-Gallery <https://sphinx-gallery.github.io>`_
